diabetes_model.pt (torch, 15054 bytes, 5 tensors)

weight f4 [64, 10]
000000 33 8e 42 3d 8d ff d4 3c 86 71 00 3f 40 f9 fd 3e
       0.047498893 0.026000762 0.50173223 0.49604225
000010 20 b5 f9 bd b5 80 9e 3d 11 e0 bc be 0f f1 96 3e
       -0.1219275 0.07739393 -0.368897 0.29480788
000020 ac 64 b9 3e 99 b7 91 3d 2e 71 82 3e fa b2 60 3d
       0.3620962 0.071150966 0.25476974 0.054858185
000030 c9 bf 5d 3e 46 98 22 3d db b9 10 3e b6 82 29 bd
       0.21655191 0.039696 0.14133398 -0.04138442
000040 7a 60 67 3e b2 74 31 3d 87 1e 0c be 33 03 99 3d
       0.22595397 0.04332418 -0.1368352 0.07471313
000050 05 d7 95 be 3a a5 7a be 53 eb e8 3e 7d f5 e2 3e
       -0.2926561 -0.24477091 0.45492038 0.44327918
000060 5a a1 9a be 86 49 fd bd c6 dd 8f be e7 0b 91 bd
       -0.30201226 -0.12367539 -0.28098887 -0.07082348
000070 d9 53 d8 3d 9a b0 5a 3c 82 1a 21 3e da 2b e8 be
       0.10562868 0.013347769 0.15732768 -0.45345956
000080 88 3c 4a 3f 4c 22 a9 3e 7a 30 6b be 3a b3 15 3e
       0.78998613 0.3303398 -0.22967711 0.14619151
000090 cd f7 75 be c4 b7 ba 3e 2e 45 a6 3d f1 6f 71 3e
       -0.2402031 0.36468327 0.08118664 0.23577859
0000a0 a1 49 a1 3d 2f c9 a2 bd ce a2 fc 3d d9 fc 85 3e
       0.07875372 -0.07948529 0.1233574 0.2616947
0000b0 50 80 2d 3e fb 36 03 be 39 43 2d 3e 92 d0 56 3d
       0.16943479 -0.12813942 0.16920175 0.052445002
0000c0 7b 6c 18 3e 7c f0 36 be bb 8e 94 be 7f ed e7 bd
       0.14885132 -0.17865175 -0.29015145 -0.11324596
0000d0 a9 37 66 be ae 47 76 3e df e6 ac 3d c7 a5 f8 3d
       -0.2248217 0.24050781 0.08442473 0.121409945
0000e0 06 d9 bd 3d e0 14 a7 bb 32 e5 6a 3e a1 41 55 be
       0.092699096 -0.005098924 0.22938994 -0.20825817
0000f0 c0 72 16 bd 8b 35 bd be d5 f3 37 3f 54 cd 3a 3e
       -0.036730528 -0.36954913 0.71856433 0.18242389
000100 77 42 8e bd 18 cb 03 be 2d 56 d9 bc cc 43 7e bd
       -0.06946271 -0.12870443 -0.02653035 -0.062076375
000110 d6 e6 02 be 6b 76 09 3e c1 9f 90 3e 26 9b 15 3d
       -0.1278337 0.13424079 0.28246883 0.036524914
000120 7b b4 79 3f dc 8b 03 3d 97 74 fc be fc 3e 9b be
       0.97541016 0.032115802 -0.493077 -0.3032149
000130 e5 c4 29 bf 9b 60 cd 3e e3 62 95 3e c2 fe 30 3f
       -0.6631606 0.40112767 0.29177007 0.6913873
000140 1d 07 54 be 31 92 13 be a1 47 58 3e 71 8c 80 bd
       -0.20705839 -0.14411236 0.21121074 -0.06276787
000150 d5 46 fa 3d 6d 99 63 bc bf 4b e5 3d 19 28 30 be
       0.122205414 -0.01389156 0.11196088 -0.17202796
000160 df da bc bd 62 d8 09 3d 9e cf 7d 3d 7b 0c 99 bd
       -0.09221434 0.033653624 0.061965577 -0.074730836
000170 24 e8 32 3e 6f 0a 4c 3e 10 a8 59 be c7 3c 20 be
       0.17471367 0.19925855 -0.21255517 -0.15648185
000180 4f 6a 89 3e 8c 8e ca bd df cf d4 bd 78 35 91 be
       0.2683892 -0.0989047 -0.10391211 -0.28361106
000190 5a 2a 87 be 77 09 27 be b4 1d 0e 3f 04 9b 04 3c
       -0.263995 -0.16312204 0.55514073 0.008093599
0001a0 de b5 dd bd 09 6b 63 be 13 7a 04 bf ec 14 f5 bc
       -0.10825704 -0.222088 -0.5174877 -0.029917203
0001b0 b3 3e 2b be b2 16 ce 3d 6f 03 96 3e 46 c2 62 3d
       -0.16723137 0.100629225 0.29299495 0.055361055
0001c0 17 fc b8 3d 48 f8 8b be 78 20 45 be 38 cf c7 bd
       0.09032457 -0.2733786 -0.19250667 -0.09756321
0001d0 49 bc 3b 3d 38 0d 84 be f2 52 01 be d2 af 33 be
       0.04583386 -0.25791335 -0.12629297 -0.17547539
0001e0 4d 9c b4 bd 4a 84 94 be 32 9e 13 3f 21 aa ae 3d
       -0.088188745 -0.2900718 0.5766326 0.08528543
0001f0 0b 20 b2 be b6 58 62 be 97 c7 c4 be 53 21 ee bd
       -0.34790072 -0.22104153 -0.38433525 -0.1162745
000200 ed 4c 95 3e 2b fa 86 3e 4f b9 f9 3d 1f a3 ce bd
       0.29160252 0.26362738 0.12193548 -0.10089707
000210 05 04 8a 3e e4 32 db 3e bf 38 8c be 54 ba 61 be
       0.26956192 0.42812264 -0.27387044 -0.22043735
000220 36 f5 03 bf 24 20 81 be 6c c4 c1 3d 18 24 4b 3e
       -0.5154604 -0.25219834 0.094612926 0.19837987
000230 dc c5 5f bc 50 cb e3 be 61 44 42 3f d6 28 93 3b
       -0.013658013 -0.44491053 0.7588559 0.004490952
000240 d8 1d 65 be 78 26 a8 bc d7 a1 f1 bd 8d 77 a1 3e
       -0.22374666 -0.020526156 -0.117984466 0.31536523
000250 6d d0 97 3e 6e 5a 0b 3d 60 1a fb 3a d1 bf a3 be
       0.29651204 0.034021787 0.0019157641 -0.31982282
000260 6c 25 16 3f 95 5a 89 3d aa a2 07 3e 79 8b 83 be
       0.5865085 0.0670673 0.13245645 -0.25692347
000270 34 fe c1 bd d9 57 74 3e 4f 44 16 3e 8e 4c 29 3e
       -0.094723135 0.23861636 0.14674495 0.1653311
000280 a7 aa 87 3e 50 24 59 bd 07 f8 2e 3f fa 32 b1 bc
       0.26497385 -0.053013146 0.6834721 -0.021630753
000290 9f bf 0f 3e ae d9 94 3d 0a df 07 bf ae 12 06 3f
       0.14037941 0.072680816 -0.53074706 0.5237225
0002a0 b2 60 70 3e c5 12 62 3e 26 ea 17 be 6d 56 65 bc
       0.23474386 0.22077473 -0.14835414 -0.013997656
0002b0 be 96 27 3e da 64 99 bd 36 41 2b be 82 90 cd bd
       0.16366097 -0.07489939 -0.16724095 -0.10037328
0002c0 e7 3a 60 be 15 15 d6 3d d8 52 68 3e ab 48 8d be
       -0.2189747 0.1045324 0.22687852 -0.27594504
0002d0 0b da 08 3d e7 e6 d7 3d a1 a7 02 3c 79 fa b2 bd
       0.033411067 0.10542088 0.007974536 -0.0873918
0002e0 2f 89 d8 3d fc 5e da 3d 52 ac 1f 3e 53 7f ca bd
       0.10573041 0.10662648 0.15593079 -0.098875664
0002f0 db 75 f5 bd ac 4a 79 bc d1 75 39 be d8 b4 93 be
       -0.1198537 -0.015215557 -0.1811135 -0.2884891
000300 c9 81 40 3f f2 80 02 3f 23 17 4d be 6f 82 14 be
       0.75198036 0.50978005 -0.20028357 -0.14502881
000310 5e 4f 8b be 02 07 e4 3d fe 96 02 3e d9 d2 be 3e
       -0.2720899 0.11134149 0.12752911 0.3727024
000320 d2 4d 88 be 70 87 dd bd a2 c2 7c 3e 65 d8 e9 3d
       -0.26621872 -0.10816848 0.24683622 0.11418227
000330 ea da 6e bc 6d f5 34 be 30 a1 37 be fb 6d 86 be
       -0.01457856 -0.17671748 -0.17932582 -0.26255783
000340 e2 ab c3 bd 4a b8 ca 3d 11 72 ac 3d db a3 ad bd
       -0.095542684 0.098984316 0.08420194 -0.084785186
000350 3b a3 9c 3e d3 5d a0 3d 8a 84 44 be a3 bf 6b 3e
       0.30593285 0.078303955 -0.19191185 0.23022322
000360 6b 50 57 be e0 28 22 3d 61 45 29 3e de 72 57 3e
       -0.21026771 0.039589763 0.16530372 0.21039912
000370 1e 45 42 be 46 12 5b 3e de 79 08 be fd ac 70 bd
       -0.18971679 0.2139369 -0.13327739 -0.058758724
000380 d7 4a 95 be af e0 48 3e 4c 66 63 3e 25 c6 da 3d
       -0.2915866 0.1961696 0.22206992 0.10682324
000390 63 48 51 be ae 1c 94 be 7e f9 9a be 51 9c 24 bc
       -0.2043777 -0.2892813 -0.30268472 -0.010047034
0003a0 2c a0 37 3f de 26 ed 3e 01 a2 ff 3b 60 01 ab 3c
       0.7172878 0.46318716 0.007801295 0.02087468
0003b0 97 98 7e be 28 82 07 be d5 72 4c be 30 12 59 3c
       -0.24862896 -0.13233244 -0.1996568 0.013248965
0003c0 fa 6d 3f 3d 10 c4 95 be 06 8c 11 3f 8d 80 04 3e
       0.04673574 -0.29251146 0.56854284 0.12939663
0003d0 c2 55 fd bd 32 36 48 be 9e 1e d3 be d8 c2 77 3e
       -0.12369873 -0.19551924 -0.41234297 0.2419542
0003e0 f0 01 01 3d d8 19 09 3f a3 c7 58 bc 14 ae d9 bd
       0.03149599 0.5355506 -0.013231191 -0.10628906
0003f0 e9 bf 1d 3d 5d 73 89 bd 57 59 3a bb ef f5 38 be
       0.038513098 -0.06711457 -0.0028434598 -0.18062566

bias f4 [64]
000000 0d 8a 31 3f 4f 99 8c be 30 52 75 3f 59 0b 6d 3f
       0.69351274 -0.27460715 0.95828533 0.9259544
000010 97 e9 92 be db 5b 0f be 75 65 45 3f 82 16 31 3f
       -0.2869384 -0.13999884 0.77107936 0.6917497
000020 a8 85 b3 bd 0f 85 07 be ed f8 7d 3f b5 c7 27 be
       -0.08765727 -0.13234352 0.99207956 -0.16384776
000030 1d 37 74 3f 8b c8 48 3f 7b af 51 3f d0 d6 69 3f
       0.95396596 0.78431004 0.81908387 0.913434
000040 ee 87 22 3f 97 e2 2a be 65 00 c3 bd 17 0c 7a 3f
       0.6348866 -0.16688 -0.095215596 0.976747
000050 02 b4 5e be f7 7d 4e 3f 55 7d 93 be 20 64 63 3f
       -0.21748355 0.8066096 -0.28806558 0.88824654
000060 28 66 3f 3f 6c 12 ac bd 6f 79 53 3f 02 4c 2b 3f
       0.74765253 -0.08401951 0.8260717 0.66912854
000070 58 10 60 3f a3 99 6d be c3 4e 30 bd 38 d1 51 3f
       0.8752494 -0.23203139 -0.043043863 0.8195987
000080 3d 1b 84 3f d4 a6 5d 3f d3 41 5a be 69 09 7e 3f
       1.0320812 0.86582685 -0.21314172 0.9923311
000090 f9 dc 85 bd 99 2b 80 bd e6 66 88 be ec 84 d3 bd
       -0.06536288 -0.062583156 -0.26641005 -0.10328087
0000a0 25 e9 79 3f 8d c0 34 3f f9 d1 2e be 1d 27 59 3f
       0.97621375 0.7060631 -0.17072286 0.8482531
0000b0 53 f6 00 3f 44 9d 80 3f 78 41 82 be d1 9d bd bd
       0.5037586 1.0047994 -0.25440574 -0.09258617
0000c0 d7 e7 90 be 65 69 ec bd 35 e1 5a 3f a2 f3 84 3f
       -0.2830188 -0.1154354 0.8549989 1.0386851
0000d0 17 f0 3c 3f 51 0e 7f 3f ab 14 25 3f 40 bd 4a 3f
       0.7380385 0.9963122 0.6448466 0.7919502
0000e0 f0 8d 76 3f e2 bb 68 3f 75 ff 27 be ba d1 62 3f
       0.9631033 0.90911686 -0.16406043 0.8860127
0000f0 3e 39 71 3f 56 57 0c be d8 3a 0f be a2 be 7b be
       0.9422797 -0.13705191 -0.13987291 -0.2458444

weight f4 [32, 64]
000000 72 26 28 bd bf 54 c0 bd 5e b1 a3 bc da 05 01 bd
       -0.04105229 -0.09391164 -0.019982036 -0.03149972
000010 4d 27 ce bd 13 52 01 3d 2c b4 9c bd da 8e 31 bb
       -0.1006609 0.031572413 -0.076515526 -0.0027093203
000020 3e 48 31 3c 3a e5 eb bd 76 78 19 3d 39 ff c6 3d
       0.010820447 -0.11518331 0.037468396 0.097166486
000030 1d 0d b2 bc 4b 03 36 be 10 84 e1 bd 7b e5 cf bd
       -0.021734769 -0.17774694 -0.11011517 -0.10151192
000040 4c ed f3 bc 72 cf 85 3d 20 8a 2c 3d e6 cf bf 3c
       -0.029776238 0.06533708 0.042123914 0.023414563
000050 b9 bc 31 bd 83 5f df bc 7a d9 28 3d 69 d7 29 be
       -0.04339287 -0.027267223 0.041223027 -0.16586079
000060 1d 7d 38 be b0 30 01 be 96 9f 40 3c 3a 0c 36 be
       -0.18016477 -0.12616229 0.011756798 -0.17778102
000070 5c f6 2c be 53 ed 84 3d a3 05 80 3d a1 88 dc 3c
       -0.16890854 0.064905785 0.06251075 0.026920618
000080 d8 80 1f be 2a 48 1c be 9f 72 73 3d 78 e5 01 3d
       -0.15576494 -0.15261903 0.059435483 0.03171298
000090 03 fa 8d 3d 46 af 94 3c f8 67 1c 3d aa aa 5b 3d
       0.069324516 0.018149983 0.03818509 0.053629555
0000a0 62 35 13 be 22 97 f5 bd 10 f9 a5 3d bf dd 18 be
       -0.14375833 -0.11991717 0.081041455 -0.1492834
0000b0 84 d7 82 bd f8 b5 83 3c b1 bc 15 3d b8 51 19 3d
       -0.063887626 0.01607798 0.036556903 0.03743145
0000c0 4c 24 49 bd d2 93 d1 ba eb 17 13 3d ac 45 0d be
       -0.04910688 -0.0015989488 0.03591148 -0.13796109
0000d0 18 f0 87 bd 17 6d 5f bc 7f 3f 17 be 28 52 35 3d
       -0.06637591 -0.013636849 -0.14770316 0.044267803
0000e0 28 b1 00 be de 84 c5 bd 89 67 00 bd 30 f9 12 be
       -0.1256758 -0.09644483 -0.03134874 -0.1435287
0000f0 61 1a 3b be 1f cb 85 3d 6f 29 fc 3c bd 3d de bd
       -0.18271782 0.06532883 0.030781476 -0.108516194
000100 25 c2 31 3f 54 86 ea 3d c7 41 51 3f 66 cb 52 3f
       0.69436866 0.11451402 0.81740993 0.8234161
000110 8e f7 8d bd aa 0c 50 bd c0 4a 40 3f 0a 5a 3c 3f
       -0.06931983 -0.050793327 0.7511406 0.7357489
000120 c4 10 c2 bc ba 63 1c 3c 83 1e 49 3f aa 5c 70 bc
       -0.023689635 0.009545261 0.7856218 -0.01467053
000130 a7 81 4a 3f b6 90 38 3f 8e 3f 4d 3f 05 fb 4f 3f
       0.79104084 0.7209581 0.801751 0.812424
000140 89 ff 1f 3f 61 49 eb bd 8b e3 dd 3d 3a a1 4e 3f
       0.6249929 -0.11488605 0.10834416 0.8071476
000150 3b 5c 71 bd e0 5f 60 3f 8b 9f 56 bd 80 34 5a 3f
       -0.05892585 0.87646294 -0.052398246 0.8523636
000160 2e f2 55 3f 18 43 f1 3a bd 4b 59 3f 0b 14 26 3f
       0.8357266 0.0018406836 0.8488119 0.64874333
000170 6c 93 37 3f 51 3c 9e bc e3 f0 9f bd b3 f3 60 3f
       0.7170932 -0.01931587 -0.07809617 0.87871855
000180 25 cd 41 3f 90 71 50 3f d3 df d3 bd 83 f6 57 3f
       0.7570365 0.8142328 -0.103454255 0.8436052
000190 10 7d 13 bd e1 7e b4 bd 33 c9 8a 3c b3 27 07 3e
       -0.03600794 -0.08813263 0.016941642 0.13198738
0001a0 07 fd 60 3f 4d 61 32 3f a5 89 69 bd 0b 59 4c 3f
       0.8788609 0.6967972 -0.057016034 0.7982337
0001b0 d4 1c 21 3f 44 3e 51 3f 60 3d 82 3d 89 38 d7 bc
       0.62934613 0.81735635 0.063593626 -0.026272075
0001c0 05 d4 83 3d b7 f2 ae 3d 61 3c 3f 3f 04 82 5a 3f
       0.06436924 0.08542388 0.74701506 0.8535464
0001d0 44 11 53 3f d2 39 61 3f 56 1f 2e 3f 84 75 37 3f
       0.8244822 0.8797885 0.68016565 0.7166369
0001e0 7a 3e 3d 3f 44 61 47 3f 02 6b 8e 3d b2 e4 33 3f
       0.73923457 0.7788279 0.06954004 0.70270836
0001f0 eb 62 55 3f b2 13 2a bd 8a 58 8f 3d 04 40 b4 bb
       0.8335406 -0.04152269 0.06999309 -0.0055007953
000200 c1 61 38 be a5 90 82 bd 20 4c 25 be 13 a5 a1 bc
       -0.1800604 -0.06375245 -0.1614232 -0.019732034
000210 62 1c 9f bd 45 29 1e bc 23 92 4f bd 51 37 f4 bd
       -0.077690855 -0.009653394 -0.050676476 -0.11924613
000220 cd 94 b6 bc c3 b0 e7 bd c5 13 24 be 66 02 d7 bd
       -0.02228775 -0.113130115 -0.16023166 -0.10498504
000230 07 e4 e4 bd 23 59 f7 bd 0b 59 7a bd 63 82 c9 bd
       -0.11176305 -0.12077548 -0.061120074 -0.098393224
000240 30 16 5f 3d a9 8a d9 3d 78 45 2a 3d 64 15 fc bd
       0.05446452 0.106221505 0.041570157 -0.123087674
000250 a6 30 de bd da 34 08 bd 17 21 6b bd 2e 5c 9b bc
       -0.10849123 -0.03325353 -0.057404604 -0.018964853
000260 a1 34 7b 3a 9b ee fa bc 6f 82 03 3d 4b 47 03 3d
       0.00095827325 -0.030631354 0.032106813 0.032050412
000270 35 51 57 bd f9 e4 ac bd 03 00 d4 3d 9d b4 07 be
       -0.05256768 -0.084421106 0.10351565 -0.13252492
000280 df f3 06 be 3f fe a6 3c c5 d9 b7 3d 8e d7 2e bd
       -0.13178967 0.020384906 0.08977083 -0.042686038
000290 8e fb ed 3b 8b 98 c7 bd 93 0c 45 bc e2 5b 4f 3d
       0.0072626537 -0.09745892 -0.012026924 0.050624736
0002a0 eb e6 44 bd 2b e2 87 bd f6 16 c5 bc d6 e6 f2 bd
       -0.048071783 -0.06634935 -0.0240588 -0.11860435
0002b0 59 6d 8d 3d 99 0c 90 bd 12 5f 9a 3d 12 ff a7 bc
       0.06905622 -0.07033653 0.075376645 -0.02050737
0002c0 06 58 4f 3d 59 e3 43 3d 19 a9 75 bd 4c a5 91 bb
       0.050621055 0.047824237 -0.059975717 -0.0044447538
0002d0 5a 8b 97 bb c0 0e f4 3c 40 91 37 3c 0a 1a db bd
       -0.0046247663 0.02979219 0.011204064 -0.10698326
0002e0 ca 92 32 be 8c c3 66 bd a8 8c 84 ba 1e 68 db bd
       -0.17438808 -0.05633883 -0.001011272 -0.10713218
0002f0 29 ff c6 bd 15 90 b2 3b 4b 21 ad 3d 65 f1 13 3d
       -0.09716637 0.005449305 0.08453616 0.036118884
000300 58 84 28 bd a5 27 43 bd 5e 09 eb bc 2d 6c 37 bd
       -0.041141838 -0.04764523 -0.02869099 -0.0447809
000310 37 5f d5 3d 88 5a 7b 3d 24 43 d6 3d f8 fe c1 39
       0.104185514 0.061365634 0.10462025 0.00037001795
000320 ec 69 bf 3c 5c 90 24 3d 46 9a e0 bd 7f 82 29 3c
       0.023365937 0.040176734 -0.10966925 0.010346054
000330 a5 f3 fd bb dd 08 85 bd db 1e b8 bd e4 0f d2 3d
       -0.007749992 -0.06495831 -0.0899026 0.10256937
000340 9f ed c0 3d bb f2 5b 3d cf 6d e2 3d 84 95 40 bd
       0.094203226 0.053698283 0.110561006 -0.04701759
000350 15 f0 a3 bc 4f ae 33 3d b4 d2 9c bc 0d 41 ba bc
       -0.020011941 0.043867406 -0.01914344 -0.022736097
000360 62 21 c4 bd 38 ff fe 3c d0 65 8f bd 01 11 8a 3b
       -0.0957668 0.031127557 -0.07001841 0.004213453
000370 ce 58 e7 3d 6e 14 12 bd 97 94 15 bd 31 28 8f 3d
       0.11296235 -0.035664015 -0.03651866 0.06990088
000380 21 7a 2e bd ee 04 23 bc db 8f dd 3d a3 8f 42 bd
       -0.04259694 -0.009949906 0.10818454 -0.047500264
000390 88 c1 a9 bd 7c cb 84 bd 88 92 03 bd c5 2e 61 bd
       -0.08288866 -0.06484124 -0.032122165 -0.054976244
0003a0 ec 44 76 bd 23 b3 3f 3d 69 4b a1 3c 3c e4 17 bd
       -0.060124323 0.046801697 0.019689279 -0.037082896
0003b0 67 59 b8 bd 3e 6c 15 bd 75 49 48 bd 17 6f 1a bd
       -0.09001427 -0.03648018 -0.04889818 -0.0377036
0003c0 64 0f d6 bd e0 78 cc 3c b8 56 ae bd 16 cc b8 bd
       -0.10452154 0.024959981 -0.08512634 -0.09023301
0003d0 98 de c1 bd df 13 46 3d 0f da 8e bd 08 e1 43 bd
       -0.094662845 0.048358794 -0.06975185 -0.04782203
0003e0 52 fe b9 3d c2 fa 7b 3d 9c 0e 88 3d b2 4d e1 bd
       0.09081711 0.06151844 0.066434115 -0.11001147
0003f0 2a 28 aa bd bf 27 33 bd 39 05 c4 3d d6 31 42 3c
       -0.08308442 -0.043739077 0.09571309 0.011852702

bias f4 [32]
000000 79 d5 3f 3d cd 28 57 3f f8 d0 1b bc 91 26 21 bd
       0.046834443 0.8404663 -0.009510271 -0.03934342
000010 8f f1 14 3d 5a a7 cf bc 44 32 8c 3d f7 c1 a7 bd
       0.03636318 -0.025348354 0.06845525 -0.08191293
000020 99 34 2e bc 40 3c e7 3b d7 d1 b5 bd 5c db 20 3d
       -0.010632657 0.007056743 -0.088779144 0.039271697
000030 08 a1 be 3e 3a 5d a3 bd a7 4b c6 bd 74 15 50 3f
       0.37232232 -0.07976766 -0.09682398 0.81282735
000040 80 5d d3 3e e4 a4 32 bd 7e 8a 33 3f 08 ac fd 3c
       0.41282272 -0.043614283 0.701332 0.03096582
000050 fd f4 e8 bd 61 0a e5 bd fc b6 48 3f 2f 78 2a 3c
       -0.11374853 -0.1118362 0.7840421 0.010404631
000060 bd 53 56 bd c5 d2 4e 3f b3 8c 9c bd a7 87 1d be
       -0.052325953 0.8079036 -0.07644024 -0.15383779
000070 e3 d6 93 bd 38 65 37 3f c9 d9 8d 3c 61 5b 14 be
       -0.07218721 0.7163882 0.017315762 -0.14487983

weight f4 [1, 32]
000000 62 7b 6c 3d 61 96 57 3f 25 62 a2 bd e3 e2 01 3e
       0.057734855 0.84213835 -0.07928876 0.12684207
000010 b5 1f 5a bc d9 1e 36 3c 10 46 cd bd 5f 13 af bb
       -0.013313224 0.011115753 -0.10023129 -0.0053428854
000020 84 6f 98 3c c5 50 78 bd a3 55 65 3d 98 0f 62 3d
       0.018607862 -0.060623903 0.055989873 0.055190653
000030 2d dd 0a 3f ed 66 e2 3d 67 f6 11 3e f6 3f 51 3f
       0.5424374 0.11054788 0.14254151 0.8173822
000040 db 3a 07 3f a9 1c 1d 3e a7 16 66 3f 23 ed 00 be
       0.5282418 0.15342964 0.89878315 -0.1259046
000050 53 7d 16 bd de 65 cb bd 54 b8 47 3f 6e 0a 6d bd
       -0.036740612 -0.09931539 0.7801564 -0.057871275
000060 bf 9f 11 3e 9d 44 45 3f 4f 5e ec 3a 79 a1 80 bd
       0.14221095 0.7705782 0.0018033477 -0.062807985
000070 41 3a 95 bd 73 15 4a 3f e6 88 d2 bc 20 6a 91 bc
       -0.07286502 0.7893898 -0.025700044 -0.0177508
